model/keypoint_classifier/keypoint_classifier.tflite (tflite, 6072 bytes, 3 tensors)

arith.constant f4 [4, 10]
00000000: a04a 563e d8c6 803e 384b b53e 809e df3e
00000010: 3c6f c7be a4dd fdbe d92b 8bbe cf77 10bf
00000020: 942f c63e af1f a9be 1d7e 18bf 1958 0bbf
00000030: d004 04bf 0c49 12be 4c02 ae3e c4c5 bfbe
00000040: c0fe 0dbf 45a6 babe 7830 b33d 3210 9fbe
00000050: 2d92 aabe 00e0 7bba fc77 983e 18d6 a6bd
00000060: 443c 86be 64d0 233f 369b 60be 82d6 aabe
00000070: 8ae3 1f3f 7c75 de3e d06b e13d 28c5 13be
00000080: eacc 133f ec79 fa3e e845 9bbd 208c e13c
00000090: 0837 943e 737e bbbe b4b8 dbbe dfa7 c8be
0.20926905 0.25151706 0.3540895 0.43675613 -0.38952053 -0.4958316 -0.2718189 -0.56432813
0.38708174 -0.33031985 -0.59567434 -0.544313 -0.51569843 -0.14285678 0.33986127 -0.3745557
-0.5546684 -0.3645498 0.08749479 -0.31067044 -0.33314648 -0.0009608269 0.2977904 -0.08146304
-0.26217854 0.63989854 -0.21934208 -0.3336678 0.6245657 0.43449008 0.11006892 -0.14430678
0.5773455 0.48921144 -0.07581693 0.027532637 0.28948236 -0.3661991 -0.42914355 -0.39190575

arith.constant1 f4 [10, 20]
00000000: 5855 d23d ab76 c8be f809 70be f725 dbbe
00000010: 521d ddbe f038 6a3d 2449 053e 78a1 55be
00000020: e2e1 21be 77a0 56be ce40 bfbe 71f3 e0be
00000030: 8a80 ae3e 3e7c cd3e 6cd5 013e 20ba 77bd
00000040: cfe8 d1be b87a 51bd 90f4 83bd d8f9 c83d
00000050: 306c ab3c c0da 083c 3ca4 133e 90e9 abbe
00000060: d479 133e 2882 313e d0b1 6d3d 0c82 953e
00000070: a0ed 983d 22d0 6abe 581f 9fbe 0637 ba3e
00000080: f0f8 2fbd 9e10 7cbe fe73 983e 8ab6 60be
00000090: 2441 6f3e a0a8 9d3e 7458 603e 6463 89be
000000a0: fca8 da3e ab00 ccbe eefc 3abe e692 c0be
000000b0: 9e3a 1dbe b355 a9be 10c0 f0bd c618 1dbe
000000c0: c4b2 15be 00a8 673a ecaa 8c3e e03e ecbd
000000d0: 67c5 6cbe 62a8 d43e f672 09be b88b 70be
000000e0: 66c6 8abe b067 e0be 8ca4 bf3e e8e5 bfbd
000000f0: c071 81bb 6a7a 9abe 5e6e 8bbe 5a14 dfbe
00000100: 9075 a3bc b7af 7dbe aafa b63e 40bd 46bd
00000110: a868 52bd 4e63 b6be 58d9 73be d860 99bd
00000120: 3c31 0fbe 6087 ec3c 2c93 a5be e019 ce3d
00000130: 30c0 c63e ce4e 863e b0fe f73c 8a6b 7bbe
00000140: 7844 4d3e bcf5 4d3e 796a 5abe c067 b4bd
00000150: cc99 5d3e 34f7 b3be 98cc 433d 8893 0ebe
00000160: c0db a33b 2ce5 733e ccbb 9fbe 4416 9b3e
00000170: 14a6 173e e816 bb3d 403b 3b3d b865 663e
00000180: de50 bbbe 7802 da3e d2f4 de3e 6c03 d63e
00000190: f249 b23e 42fe b2be 9fe1 b9be c87d 9abe
000001a0: 08a3 503e f0f4 543e 243d a7be 3459 1d3e
000001b0: 426b ccbe 7938 c5be 084d a0be 5862 5e3e
000001c0: 3e71 903e 2a35 48be 809a b43c e43e 1b3e
000001d0: 6ecd c9be cad5 db3e 78f6 063e 3052 b5be
000001e0: 285d 0b3e 0875 66be ec7f aa3e 2f9a d9be
000001f0: 0a9b bc3e eeab e03e 1a67 6fbe ca43 cabe
00000200: 9a4a 8b3e a0ed 963d 2e3f d5be 087c 4cbd
00000210: 5aa9 d43e b865 0e3d 1a2c 71be 1810 6cbd
00000220: 4613 e43e 2807 98bd 715e 71be a465 4b3e
00000230: ec67 98be a407 c8bd c092 aa3b 7ccd 6f3e
00000240: 6778 c1be 701e e03d 58f0 6e3e 584e 3b3d
00000250: 76f9 99be 324a 31be 6a31 953e 722e c9be
00000260: 90a3 8d3e 80a9 5d3d f033 373e 3053 f73c
00000270: 9c43 e33e 8cbc b4bd 1485 923e aa76 80be
00000280: 1b42 debe 40ef e4bb 8cc7 0a3e 22aa a63e
00000290: aeb4 d93e e03c dc3d 8ede 2dbe 0029 943b
000002a0: ac12 66be 9433 2fbe 1679 c13e c81b 573e
000002b0: 8cff 13be 786e 2c3e 10b8 dabe 30c5 9dbe
000002c0: dc73 94be 241d 3f3e 80c1 273c 7480 d9be
000002d0: a2e8 64be 6c5f 233e 21f3 b7be cef2 88be
000002e0: 6e7a 49be ca1c 83be f8dd 013d a4c0 2c3e
000002f0: 8001 51bc a0e9 783c fcaa ae3e 009e 533a
00000300: e68a 993e 97e9 d1be 622e 01be eee3 42be
00000310: 4e0f 23be ee10 51be 5053 423e 7e7e b03e
0.10270184 -0.39153036 -0.23441303 -0.42802402 -0.43186432 0.057183206 0.13016182 -0.20862377
-0.15808824 -0.2095965 -0.3735413 -0.4393573 0.34082443 0.40133852 0.1267907 -0.060480237
-0.4099793 -0.051142424 -0.06443131 0.09813279 0.020925611 0.008352935 0.14418119 -0.33576632
0.14401942 0.17334807 0.058030903 0.2920078 0.07467198 -0.22930959 -0.310786 0.36370105
-0.042962015 -0.24615714 0.29775995 -0.21944633 0.23364693 0.30792713 0.21908742 -0.26833642
0.4270705 -0.3984426 -0.18260548 -0.37612075 -0.15354392 -0.33073196 -0.11755383 -0.15341482
-0.14618975 0.00088369846 0.27474153 -0.1153543 -0.23122178 0.41534716 -0.1342276 -0.23490798
-0.2710449 -0.43829107 0.37430227 -0.09370023 -0.0039503276 -0.3017152 -0.2723264 -0.43570215
-0.01995352 -0.24774061 0.35738117 -0.048520327 -0.05136934 -0.35622638 -0.23813379 -0.074891746
-0.13983625 0.028873146 -0.32338846 0.10063529 0.38818502 0.26231998 0.030272812 -0.24552742
0.2004565 0.20113271 -0.21329679 -0.08808851 0.216407 -0.3514954 0.047802538 -0.13923466
0.0050005615 0.23817891 -0.31197965 0.30290425 0.14809448 0.091352284 0.045710802 0.2249974
-0.36585134 0.42580009 0.43546158 0.41799486 0.3482204 -0.34959608 -0.36304948 -0.30174088
0.20374691 0.20796561 -0.32663834 0.1536606 -0.3992558 -0.38519648 -0.3130877 0.21717203
0.28211397 -0.1955153 0.022046328 0.1516071 -0.39414543 0.42936546 0.13179958 -0.35414267
0.13609755 -0.22505581 0.33300722 -0.42500445 0.36837035 0.43881172 -0.23379174 -0.39504844
0.27205354 0.07369542 -0.41649765 -0.049922973 0.41535455 0.034764975 -0.2355198 -0.057632536
0.44545954 -0.0742324 -0.23571183 0.19862992 -0.29766786 -0.09767082 0.0052054822 0.2341823
-0.37787172 0.109433055 0.23333871 0.04572901 -0.30073136 -0.1731346 0.29139262 -0.39293247
0.2766385 0.054116726 0.17890906 0.030191034 0.4438752 -0.08825025 0.28617156 -0.25090533
-0.4340981 -0.0069865286 0.13552684 0.32551676 0.4252066 0.107537985 -0.16979429 0.004521489
-0.2246806 -0.17109519 0.37787694 0.21006691 -0.14452952 0.16839015 -0.42718554 -0.30814505
-0.28994644 0.1866346 0.010239005 -0.42480814 -0.22354367 0.1595437 -0.3592768 -0.26747745
-0.1967561 -0.25607902 0.031705827 0.16870362 -0.012756705 0.015192419 0.34114826 0.0008072555
0.29988784 -0.40998527 -0.1261535 -0.19032261 -0.15923807 -0.20416614 0.18977094 0.34471506

sequential_4_1/dense_12_1/MatMul f4 [20, 42]
00000000: 86b1 3f3e 58e6 793d 1a84 943e c04c 9cbd
00000010: 4013 b53d 68ce ee3d f438 563e f98d 0fbe
00000020: 8257 6bbe dce6 ea3d 6fb5 26be 8fcf 3dbe
00000030: 8c29 903e 7623 85bd 98df 6c3d 382e 31bd
00000040: ee08 fcbd af8f 97be c849 723d 18ac e33d
00000050: 5fd5 98be a0d8 143d 7002 cf3d ec2b 883e
00000060: 73ef 4dbe 2015 1fbd 8492 66be 1608 54be
00000070: 68f5 4cbd a020 6abd 6ce2 883d 046d b6bd
00000080: be4f 51be 264b a4bd a277 9a3e 64d9 80be
00000090: c82d 863e 1f94 95be 285b 3b3d e251 56be
000000a0: 80a4 6f3c 6076 f83d d400 aabd 7a84 9d3e
000000b0: 88cb 023d 644f 843e 60e6 ff3d aedb 9c3e
000000c0: 1e5c 9b3e 6039 703e 8888 543e 1707 03be
000000d0: 70cd 433d 08eb 73be b82b 663e 3c8e 903d
000000e0: a053 95bd 4898 113e d8b4 9f3d a858 da3d
000000f0: b82f 3fbd 7fcc 18be 54c9 a2bd 4bcc 25be
00000100: ac1c 95be bc25 d93d 882e fe3d 14bc 693e
00000110: 52e3 303e c769 25be a087 68bd 6e70 dcbd
00000120: fca2 ebbd 9462 bcbd a083 d7bc 4ee1 373e
00000130: e440 3ebe ecce d03d 148c 163e da85 11be
00000140: 8cce 95be b2af 61be 0231 74be 2086 f33d
00000150: 4098 c6bc 7cec 2d3e 5039 e43c c079 a7bb
00000160: 6043 603e 0e51 143e 23ac 11be b0e8 fcbc
00000170: ddc9 91be 71db 8fbe b8ee 8abe d28c 7fbe
00000180: 8cc0 233e e43a 3f3e 807f c6bc fef2 86be
00000190: a49e 91be f450 17be 541e 4f3e 18d3 e8bd
000001a0: 0043 9e3c d0bc 25bd 7a2c 1b3e 6886 1d3e
000001b0: 40cf 413d f840 8fbe dfff 81be 6401 903e
000001c0: 483b e8bd 979b 87be 901b 303e fc6d 853e
000001d0: b159 14be b0fd 8ebe ec3f 5dbe 8875 d9bd
000001e0: 53d7 89be a0f4 91bc f21a 99bd 44ac 403e
000001f0: 0280 0e3e c354 39be e2c0 123e 54d9 b03d
00000200: 40ba 473e c03c 6bbe 7a3f d7bd 0c1c 7e3e
00000210: 1bc4 9abe 9084 a8bd 88e5 4f3d f23d 46be
00000220: a067 dd3c 8463 843d d694 40be f051 f5bc
00000230: b048 c33c d87b a93d e603 3d3e 4051 ff3c
00000240: 58df a23d 7646 72be 9ec9 f6bd 7778 09be
00000250: c112 48be 7a5d 9abe e0fe 973e c89f 733e
00000260: 74eb fb3d c01e 553c 58b3 493e 688f 823e
00000270: 6064 4e3e a051 1b3d 2083 483d 1a53 323e
00000280: 9e02 9c3e 8606 873e e493 8cbd a6ee 103e
00000290: 5ca3 fb3d 2052 b7bd 58cd 493d 3f72 32be
000002a0: 5a16 88be c01e 6e3c 40cd 4dbe 3853 763e
000002b0: 6250 51be b0e4 c33c 4911 88be 336b 0dbe
000002c0: 445c 563e 50b3 91bc cca8 443e f6ea 913e
000002d0: a236 3bbe 8047 ccbc d866 5c3e f0a5 a53c
000002e0: 80b5 4fbc a8a8 673d 5cdd 863d 1808 6e3e
000002f0: a0f3 9c3e 1a7e 67be 20f9 513c 98ae 893e
00000300: 0c45 bd3d 1ce1 473e 63c8 5bbe 786e 963e
00000310: 8c3e 6d3e 2a5b 223e 204c 2dbd b4f5 5f3e
00000320: 20cd 143d 08cf aa3d 8063 1bbc 9415 313e
00000330: d60e 923e 64b5 513e 2aef a7bd b01f 83bc
00000340: e8a8 93be 006b 08bd 20f1 753e 091c 2cbe
00000350: 0ac7 8e3e c06c cf3d 00af 123e 18de 93bd
00000360: 5aeb 973e cca9 88be 38dd 94be 206c c2bc
00000370: d6e7 0f3e f00c f03c c7dd 97be 5a18 1b3e
00000380: f80a 10be 9636 033e 38e4 873e 4317 34be
00000390: 2623 3a3e ec0e 7cbd 1535 55be 80ae 9e3c
000003a0: 84b8 b43d e033 383c f602 9c3e bc73 0c3e
000003b0: dc10 7b3e 8aab 3a3e 723a 9c3e 180f 6c3d
000003c0: 0898 873e f1fb 32be 720c f3bd 3cff 643e
000003d0: 2b1f 28be ea49 9ebe 28da 343d b0f2 493e
000003e0: f6b1 1ebe 063c f2bd 2055 ffbc 48d2 de3d
000003f0: 0012 fa3c fd99 68be efdf 9ebe 006e 3c3b
0.18720064 0.06101069 0.29007035 -0.076318264 0.08841562 0.116604626 0.20920163 -0.14019002
-0.229826 0.11469814 -0.16280149 -0.18536209 0.28156698 -0.06500904 0.057830423 -0.04325697
-0.12306391 -0.2960181 0.059152395 0.11116809 -0.2985029 0.036339402 0.10107887 0.2659601
-0.20110874 -0.038838506 -0.22516829 -0.2070621 -0.050038725 -0.05716002 0.066838115 -0.08907512
-0.20440575 -0.08022146 0.30169398 -0.25165856 0.26206803 -0.2921457 0.04574123 -0.20929673
0.014626622 0.12131953 -0.08300939 0.30765134 0.031932384 0.2584182 0.124951124 0.30636352
0.30343717 0.23459387 0.20755208 -0.12795673 0.047803342 -0.23820126 0.22477615 0.07058379
-0.07291341 0.14218247 0.07798165 0.10661441 -0.046676368 -0.14921759 -0.079485565 -0.16191213
-0.29123437 0.106029004 0.12411219 0.22825652 0.17274216 -0.16153632 -0.056769967 -0.10763632
-0.11505696 -0.0919849 -0.02630788 0.1795704 -0.18579441 0.10195717 0.14701873 -0.14211217
-0.29259145 -0.22039679 -0.2384682 0.11890817 -0.02424252 0.16984743 0.02785936 -0.0051109493
0.21900702 0.14484045 -0.14225821 -0.030872673 -0.28474322 -0.28097108 -0.27135253 -0.24956062
0.1599142 0.18674809 -0.024230719 -0.26357263 -0.28441346 -0.14776975 0.20226413 -0.11368388
0.019319057 -0.04046327 0.15153685 0.15383303 0.04731679 -0.27979255 -0.25390527 0.2812606
-0.11339432 -0.26485893 0.17198014 0.26060474 -0.1448734 -0.27927923 -0.21606416 -0.106181204
-0.26922092 -0.017816842 -0.074758425 0.18815714 0.13916019 -0.1809874 0.14331391 0.08635202
0.19504642 -0.22972393 -0.10510154 0.24815387 -0.30227742 -0.08228409 0.050756007 -0.19359568
0.027026951 0.064642936 -0.18806776 -0.029946297 0.023838371 0.082755744 0.18458518 0.031166673
0.07952756 -0.23659691 -0.12050174 -0.1342486 -0.19538404 -0.30149442 0.29686642 0.2379142
0.123007685 0.01300782 0.1969732 0.25500035 0.20155478 0.03791964 0.048953176 0.17414513
0.30470747 0.26372164 -0.068641454 0.14153537 0.12287018 -0.08951211 0.049268097 -0.17426394
-0.26579553 0.014533699 -0.20097828 0.24055183 -0.2044082 0.023912758 -0.26575688 -0.13810425
0.20933634 -0.017785698 0.19205016 0.28499573 -0.1828256 -0.024936438 0.21523607 0.020220727
-0.01267755 0.056557328 0.0658519 0.23245275 0.3065462 -0.22606698 0.012815744 0.26891017
0.09241685 0.19519466 -0.2146316 0.29381156 0.23168391 0.15855089 -0.042308927 0.21871072
0.036328435 0.08340269 -0.009484172 0.17293388 0.28526944 0.20479351 -0.08199914 -0.01600632
-0.28839803 -0.03330517 0.24017763 -0.1680757 0.2788623 0.10128164 0.1432457 -0.072200954
0.29671746 -0.26692045 -0.29075027 -0.023733199 0.14053282 0.029303044 -0.2966139 0.15146008
-0.14066684 0.12813792 0.26541305 -0.17586999 0.1817747 -0.061537668 -0.2082103 0.019370317
0.08824256 0.011242837 0.3047101 0.13716024 0.2451815 0.182295 0.3051334 0.057631582
0.26483178 -0.1747892 -0.11867608 0.22362989 -0.1641814 -0.30915767 0.044153363 0.19721484
-0.15497574 -0.11827855 -0.03116852 0.10879952 0.030526161 -0.22714992 -0.31030223 0.0028752089
